Computational Thinking and Fundamentals/Homework6/Code/models.pth (torch_old, 266065 bytes, 10 tensors)

weight f4 [6, 1, 5, 5]
000000 21 19 5d 3d 20 5e 4b 3e 6e d0 2a 3d 87 ec d2 3d
       0.053979043 0.19860125 0.04170268 0.1029902
000010 e2 27 84 bc 8c b4 00 3d 26 61 19 bd 3f d6 9c bd
       -0.016132299 0.031422183 -0.037446164 -0.07658052
000020 88 d1 b6 3d 31 f1 95 3e 2a e5 fb 3d 72 9f 0b be
       0.08926684 0.29285577 0.12299569 -0.13635042
000030 fd af 86 bd 07 4c 13 3e 52 f7 ec 3c 45 c2 bf 3d
       -0.06576536 0.14384471 0.028926525 0.09363226
000040 cf 01 bc 3c 4f aa 08 3e c3 fd ac 3d e7 eb 8f bd
       0.022950081 0.13346218 0.08446839 -0.07027417
000050 f3 c4 04 3e 11 e5 67 3c ab 2f 6b bd fb 30 19 3e
       0.12965755 0.014153735 -0.057418507 0.14960091
000060 ae ea bb 3d af 9e c0 3d b0 e5 aa 3d fa d6 10 3e
       0.09175621 0.094052665 0.08344591 0.14144507
000070 89 78 60 bd b4 3a 12 3e 50 46 8e 3e 8c 82 35 3d
       -0.05480245 0.14280206 0.2778802 0.044313952
000080 34 f0 98 3e 50 6c d6 3d 73 6e 95 3e 4a 5c 69 3d
       0.2987076 0.10469878 0.2918583 0.05697278
000090 a6 f0 fc 3c d0 46 19 bd 5e 52 48 3e fd 9f ce 3d
       0.030876469 -0.037421048 0.1956267 0.10089109
0000a0 ae a3 96 be 85 80 e2 bd ff 15 fc 3b 18 11 95 be
       -0.29421753 -0.110596694 0.007693052 -0.29114604
0000b0 60 1e c6 bd 0f 98 7b be 33 10 77 be 3e f4 b2 be
       -0.09673762 -0.24569725 -0.24127273 -0.34951967
0000c0 61 31 ec bd 5f 4a 95 be 58 3e 68 be d4 38 12 be
       -0.11532856 -0.29158303 -0.22680032 -0.1427949
0000d0 a2 c4 b4 bc 69 d2 a9 3d a5 77 af 3c 2a b9 b0 be
       -0.022066418 0.08292086 0.021419356 -0.3451627
0000e0 26 ba a0 bd 68 a3 5a 3e e4 fd 43 3d a4 4a 38 3e
       -0.07848005 0.21351397 0.04784955 0.17997223
0000f0 20 7b 95 be 5e 39 f6 bd 90 bc 9b bd 02 37 a0 3e
       -0.291955 -0.12022661 -0.07604325 0.31291968
000100 6b f3 1d 3e cc 04 b4 be 1b 4f 04 3c c2 49 72 3e
       0.15424888 -0.3515991 0.008075501 0.23660949
000110 03 55 06 3e 86 17 e9 bd 5c ea 34 be 1a 0f 1e 3e
       0.13118367 -0.1138144 -0.17667526 0.15435448
000120 33 3a 6c 3c a1 b9 67 3e 9a 11 e3 bc a7 01 c6 bc
       0.014418173 0.22629406 -0.027718354 -0.02417071
000130 dd 02 5a be cd 65 75 bd 68 1e d3 bd e5 7e 0d bd
       -0.21290155 -0.059911538 -0.10308534 -0.034544844
000140 41 52 3e 3e e3 8c 04 3e ae df 91 ba f3 7f 44 3c
       0.18586065 0.12944369 -0.0011129284 0.011993396
000150 8b cf 8e be 5c f6 5d 3e 2c 7c 9a 3e 59 c2 6a bd
       -0.27892718 0.2167601 0.3017286 -0.05731425
000160 49 67 b6 bd 28 d4 8b be 90 65 4f 3e 0b 94 51 3e
       -0.08906419 -0.273103 0.20253587 0.2046663
000170 5b d9 69 3e a8 0b e4 bc 7d a7 5f be 52 2b 27 3d
       0.22836821 -0.02783759 -0.21841235 0.040812798
000180 69 13 31 be 1f 23 08 3e 3a 7b 5e 3e c3 aa 4a 3d
       -0.1729256 0.13294648 0.21726695 0.049479257
000190 df 9f 09 3d 17 73 89 3e c0 8a 8c 3e 33 54 82 3e
       0.03359973 0.2684562 0.27449608 0.25454864
0001a0 3d 0e 86 3e 45 fd a6 bd 53 ee b6 3e e4 d1 bb 3c
       0.26182738 -0.08153776 0.35728702 0.022927232
0001b0 c2 a3 c2 bd 2b 5e 66 be 82 f6 de 3c aa ba 3d 3e
       -0.095038906 -0.2249686 0.027217153 0.18528238
0001c0 ce 9c 09 be c0 62 64 be c7 f4 f7 bd bc 47 32 3e
       -0.13438722 -0.22303295 -0.121072344 0.17410177
0001d0 ec 13 3e be 8e cf bb be 9d ea 76 be fb 63 7d bd
       -0.18562287 -0.3668179 -0.24112935 -0.061862927
0001e0 38 d0 7c bd d0 f7 5c bb bb 78 ad 3d ab 5c 13 bd
       -0.06172201 -0.0033717044 0.08470293 -0.035977047
0001f0 1b c5 b6 3c ff 6e 20 be c4 c1 24 3e 94 bf 3f 3e
       0.022310784 -0.15667342 0.1608954 0.18725425
000200 14 35 54 bd 89 f9 26 bd 74 a3 72 be 81 48 fd 3c
       -0.05180843 -0.04076532 -0.23695165 0.030918362
000210 34 2d 27 3e 99 ac e2 3d c8 af 3d 3e 08 0d 7d be
       0.16325837 0.11068077 0.18524086 -0.24712002
000220 53 29 ee bd 2a 05 a1 3d 96 12 ce bc 01 db 64 3e
       -0.11628976 0.07862313 -0.025155347 0.22349168
000230 3d bb 97 be 0e 1b 5c be 41 31 de bd 2d d8 3a 3e
       -0.2963504 -0.21494696 -0.10849238 0.18246527
000240 08 48 1e 3e 37 cb be be 1e 3a ba bd 1c c0 3d 3d
       0.15457165 -0.37264416 -0.09093116 0.046325788
000250 a3 5f a2 bd 04 a5 24 3d
       -0.079283975 0.040196434

bias f4 [6]
000000 71 0d 7c 3d b6 23 09 3e 43 98 38 be a9 07 bd bc
       0.061536256 0.13392529 -0.18026833 -0.023074942
000010 30 bb 96 bd 2b e7 c9 bc
       -0.07359922 -0.024646362

weight f4 [16, 6, 5, 5]
000000 3b 3f 20 be f7 04 12 bd 9d e0 f8 bd 79 55 93 bd
       -0.1564912 -0.035649266 -0.121522166 -0.07194037
000010 67 c9 d7 3b ad a1 1e bd 41 bb 24 bd 47 88 d7 bd
       0.0065852883 -0.038728405 -0.04021764 -0.1052404
000020 c8 05 66 3d ac 90 eb bc 30 f7 f0 bd dc bc 52 3d
       0.056157857 -0.028755508 -0.11765897 0.05144964
000030 8c 6e b7 3d 3c d4 f2 3d 9d af 35 3d a7 ac ef 3b
       0.08956632 0.11856887 0.04435693 0.007314283
000040 4f 81 01 3d 4e 2c 28 bd 13 27 80 3c 7a 13 87 bc
       0.03161746 -0.041057877 0.015643632 -0.01648878
000050 cf 32 a5 bb d4 66 ec 3c ab a8 01 bd 47 ef 71 3d
       -0.0050414572 0.028857626 -0.031654995 0.059066083
000060 e9 12 57 bc 0c a4 9f 3d 47 24 e3 bc a7 81 e8 3c
       -0.013127067 0.07794961 -0.02772726 0.028382136
000070 72 f8 c3 3d 98 e5 9f bd 86 34 2d 3e 68 a0 20 3e
       0.095688716 -0.078074634 0.16914567 0.1568619
000080 0f aa a0 3d 90 09 64 be 91 9b 54 be 63 16 03 3d
       0.07844936 -0.22269273 -0.20762469 0.03200377
000090 38 a3 15 3d 92 bb 93 bd 39 c6 6e be 0a ea 7f be
       0.03653261 -0.072135106 -0.23317803 -0.24991623
0000a0 16 1e d5 3c 06 07 7a bd 1e 53 38 bd 9b 6c 15 be
       0.026015323 -0.061041854 -0.04500114 -0.14592211
0000b0 be ab 12 be 9a 26 7d bd 97 4b 7c 3d c3 6b b8 bd
       -0.14323327 -0.06180439 0.061595526 -0.09004929
0000c0 43 fb 41 bd 48 ec 28 bc 3b 77 ec 3d d4 1f 05 3e
       -0.047358762 -0.01031024 0.11546179 0.13000423
0000d0 78 5e d5 bd 62 40 32 be bc 24 bb bc 53 77 11 3e
       -0.10418409 -0.17407373 -0.022844665 0.14205675
0000e0 90 d6 1d 3d de 09 23 be 2d 90 10 3b f3 13 53 3e
       0.0385347 -0.15921733 0.0022058592 0.20613079
0000f0 55 a0 ad bd 4a 4e 7a 3c 35 52 30 3d 87 b2 50 3e
       -0.084778465 0.015277455 0.04304715 0.20380603
000100 27 01 4e 3e bf c3 69 bd cd a3 e7 3d a4 b0 de 3d
       0.20117627 -0.057071444 0.113105394 0.10873535
000110 22 07 c7 3d 01 9e 6e 3d a7 d4 8f 3d ea e4 12 be
       0.09718157 0.058256153 0.07022982 -0.14345136
000120 05 7b 36 bd 36 e2 e1 3d 10 d1 91 bd 51 31 f1 bb
       -0.044550914 0.110294744 -0.07119954 -0.0073606153
000130 27 16 b5 3d 23 be 5c 3d 96 a4 a2 bc 4e 6a b4 bd
       0.08842116 0.053892266 -0.019853871 -0.088093385
000140 c7 ec 05 be 58 e2 a4 ba f7 5c 68 3d f1 6c b2 bd
       -0.13078605 -0.0012579663 0.056729283 -0.08712185
000150 0a 54 1f be 59 60 9e 3d ef 6c 0b be 48 07 f9 bd
       -0.15559402 0.077332206 -0.13615774 -0.12159592
000160 56 6d a5 bd 6f 82 85 3d aa 39 6f bb f7 8f e2 3c
       -0.08077495 0.06519019 -0.0036502876 0.027656538
000170 6c fa 1c bb a4 bd 4b 3d 22 12 72 3d 90 cd dd 3b
       -0.0023952974 0.049741402 0.059099324 0.0067688897
000180 cf 63 e6 bb a7 06 90 3d 60 a6 81 3d ec 18 aa bc
       -0.007030941 0.07032519 0.06330562 -0.020763837
000190 0f 47 1e bd 42 36 81 3b a4 9d 58 bd 5a 9c 73 bc
       -0.038641986 0.0039432356 -0.052884713 -0.01486882
0001a0 dd ce 3a bd 3d 1f fa 3d cb a7 86 3d 79 95 6e 3d
       -0.045607436 0.122129895 0.06574973 0.058248017
0001b0 03 f6 c9 bd e9 7c bd bd 0d d0 2f 3e 70 12 ec 3d
       -0.09861376 -0.0925234 0.17169209 0.11526954
0001c0 bf 97 a4 3c bd 03 dc bd 8b 64 d6 3d 9e ac 9a bd
       0.02009189 -0.107429005 0.10468396 -0.07552455
0001d0 a1 3a ca 3c 7b 64 3b 3e 98 84 e5 ba b9 0a 11 3e
       0.02468616 0.18300049 -0.001751083 0.14164247
0001e0 de 15 01 bd ed 23 d2 bb d0 8d 5c bc 6e 24 72 bd
       -0.031514995 -0.006412974 -0.013461545 -0.059116773
0001f0 29 c6 68 3d 71 4a 58 3d c3 a8 e6 bc d4 7a 21 be
       0.056829605 0.052805368 -0.028156644 -0.15769511
000200 ab 0b 29 be 84 10 92 3d a4 de a1 3c da a2 f6 bc
       -0.16508357 0.07132056 0.019759484 -0.03010695
000210 64 a0 09 bd 08 7e aa 3d ad 8f db 3d 2c aa 8f bd
       -0.033600226 0.0832482 0.10720763 -0.070148796
000220 3b d6 d9 3c 3c 02 e6 3c 88 3d c8 3d 65 a9 9d bd
       0.02659141 0.028077237 0.09777361 -0.07698325
000230 a9 39 95 bd 61 90 a8 bd 22 0a b2 bd b9 7e e2 bc
       -0.072863884 -0.08230663 -0.08693339 -0.027648317
000240 16 19 ac bd ad 6f cb 3c 72 0f b4 bd 26 1f ae bd
       -0.08403222 0.024833525 -0.087920085 -0.08502035
000250 13 39 ba bd 2a 88 ab bd bd e0 47 3d 22 d1 09 3d
       -0.09092917 -0.083755806 0.04879831 0.03364671
000260 83 7f 31 3c 44 a3 8a 3d 97 84 c8 3d be 50 f8 3d
       0.010833624 0.06769422 0.097909145 0.12124775
000270 6a fd ec 3d df 37 82 3c 15 6b 06 3d b6 55 12 bd
       0.115717724 0.015895782 0.032816965 -0.03572627
000280 32 b3 18 3e f9 b8 be 3d 86 c2 0e bd 70 6b 2a bd
       0.14912108 0.093126245 -0.03485348 -0.041606367
000290 99 07 81 bd e0 f1 02 3e c7 c5 95 bc af 53 92 3c
       -0.06300277 0.1278758 -0.018282784 0.01786217
0002a0 81 c1 0a be 58 6f 97 bd 62 ca 9a bb d6 90 f0 bd
       -0.13550378 -0.07394284 -0.004723833 -0.11746375
0002b0 85 4a 32 bd 89 fc 0d be 09 b8 17 be ea 81 f5 bd
       -0.0435281 -0.13865866 -0.14816298 -0.1198767
0002c0 43 b2 b7 bd f0 b4 67 bd a5 5d 8a 3c 0d ea 95 3d
       -0.089695476 -0.05656904 0.016890356 0.07320032
0002d0 e0 a8 9d bc 83 52 03 be bb fe bc bd 96 a7 df bc
       -0.019245565 -0.12824444 -0.092282735 -0.02730159
0002e0 24 e5 6b 3d e8 18 b1 bd fc 04 1f be 74 e2 35 be
       0.057591572 -0.086473286 -0.15529245 -0.17762166
0002f0 a5 17 86 bc 43 cf 13 3d e3 7e 3f bd d6 a1 ac 3c
       -0.016368696 0.036086332 -0.046751868 0.021073263
000300 40 82 2d bd 72 07 2b bd 9c ef 8c bd 05 a8 0e 3d
       -0.042360544 -0.041755147 -0.06881639 0.034828205
000310 2e eb 6a 3c 4d bf 72 bd 1a 74 3e be 3d f2 a3 bd
       0.014338298 -0.05926447 -0.18598977 -0.08005188
000320 4e b5 c9 bc 01 55 f6 bd 8a 38 fb bc ad 27 91 bd
       -0.024622586 -0.12027932 -0.030666608 -0.07087646
000330 cb 6c e3 bd 7c 90 33 bb 54 6d 6b bd b0 6c ed ba
       -0.11104735 -0.0027399352 -0.05747731 -0.0018114056
000340 eb 57 47 3c 6e 1b e1 3c bd f1 c2 3d 60 6e da 3d
       0.012166957 0.0274789 0.09518764 0.106655836
000350 01 5d 6d 3d ef 88 ab 3d 65 b2 1e 3d 3d 45 91 3c
       0.057950024 0.083757274 0.03874435 0.01773321
000360 11 04 f6 3d 43 f8 f2 3d 9f 3b a4 3c 60 0f 00 3e
       0.12012494 0.118637584 0.02004796 0.12505865
000370 79 ed 42 3d d4 92 52 bc 1c 77 88 3d 0d 46 13 3c
       0.047589753 -0.012852389 0.06663343 0.008988869
000380 14 6b 05 3e 40 28 08 3e 3f 41 2e 3d 86 c6 d8 3c
       0.13029128 0.13296604 0.042542692 0.02646185
000390 2a 0e e9 3a 8e 1c b8 3c f4 45 68 bd 85 f9 6d 3d
       0.001778071 0.022474553 -0.056707337 0.05809929
0003a0 21 fd e0 3c a6 18 be 3d 77 cf 98 3c d7 a3 30 3c
       0.027464451 0.09282045 0.018653614 0.01078125
0003b0 f4 35 c2 3d 40 51 00 3d 4b a0 e1 bc cb 8f c5 bc
       0.09482947 0.031327486 -0.027542254 -0.024116417
0003c0 ef 32 83 bd d5 fa 82 3d 6d 85 20 bd de 69 4f 3b
       -0.06406199 0.06395499 -0.039189745 0.0031648795
0003d0 64 9e eb bd cd a9 0b be a3 f7 81 bd ce 31 8d bd
       -0.1150482 -0.13638993 -0.06346061 -0.06894265
0003e0 0b 54 39 be 35 fb f9 bd 56 2c bd be 9f f9 83 bd
       -0.18098466 -0.12206117 -0.36947888 -0.06444096
0003f0 f6 2e d1 bc 89 b7 52 3d 2b ea f7 3c 82 41 c6 bd
       -0.025535088 0.051444564 0.030263027 -0.096804634

bias f4 [16]
000000 53 8d af bd a0 4c bb bd 1c bd b1 bd 12 29 7d 3c
       -0.08571877 -0.091454744 -0.08678648 0.015451686
000010 33 f0 0a be aa 76 5a 3c 21 e7 73 bd 9b 52 17 be
       -0.13568191 0.013333956 -0.059546594 -0.14777605
000020 89 e4 8f ba d2 17 84 3d 25 5e a5 3c 5c d3 41 3d
       -0.0010978143 0.06449856 0.020186493 0.04732071
000030 ce e0 21 3e ad 52 1f bd ff a3 de bd ff 03 a3 bd
       0.15808412 -0.038897205 -0.108711235 -0.079597466

weight f4 [120, 400]
000000 95 75 42 bd 2c 9d 43 bd 49 df 17 be a8 9d ca bc
       -0.047475416 -0.047757313 -0.1483127 -0.02473338
000010 ed 4e 88 bd 7b 7d ea bd fc 16 6a bb d5 b7 a1 bc
       -0.06655679 -0.11449715 -0.0035719266 -0.019740978
000020 95 82 0a 3d 01 08 eb 3d 1f 21 01 bc 7d e8 41 bc
       0.03381594 0.11476136 -0.007881432 -0.011835215
000030 28 17 95 bd b8 18 6a bd 0a 12 c6 bd 3e d0 be bc
       -0.07279807 -0.05715248 -0.096714094 -0.023292657
000040 90 0f 19 bd 32 78 a0 3d c9 bd 14 be ca ce a1 bd
       -0.037368357 0.078354254 -0.14525522 -0.0790077
000050 1f a2 2e bd 9f e2 f3 3d b3 19 91 bd 4e bd 97 3d
       -0.04263508 0.11908459 -0.0708498 0.07409154
000060 a6 4c 47 3d 24 cc a5 3c 62 fb 85 3d 7f ca 53 bc
       0.048657082 0.020238943 0.06542088 -0.012926697
000070 ca 11 5a bc e9 10 a8 bc 08 54 f1 3d 8f 1c cf 3d
       -0.013309905 -0.020515876 0.11783606 0.10112869
000080 f8 39 88 3d 8d 3d 34 bd 02 f9 2f bd 62 16 ec 3d
       0.06651682 -0.044004012 -0.04296208 0.11527707
000090 5b 32 fe 3d ab 15 0a 3d 7f 50 2b bd 91 e2 7e bd
       0.12411948 0.03371207 -0.041824814 -0.06222779
0000a0 c9 07 e7 3d ce 53 08 3e c4 57 11 be c0 bb db bc
       0.11280782 0.13313219 -0.14193636 -0.026822925
0000b0 83 ab 5a bc b9 e9 c6 3d a5 5a a7 3b 83 1d 71 bd
       -0.013346556 0.09712548 0.005107241 -0.058866035
0000c0 30 eb 41 bd f6 ff da bd 56 df 6f 3d 7d 9a 06 3c
       -0.047343433 -0.10693352 0.0585626 0.008215544
0000d0 5c df fd bd 1d ed 62 bd 5c b3 9e 3d 7c 3a bc bd
       -0.12396118 -0.05540191 0.07749054 -0.091908425
0000e0 b7 3d 06 3d a2 4b 8f 3c 81 c9 7e bc a4 e3 8d 3d
       0.0327737 0.01749212 -0.015550972 0.06928185
0000f0 f4 81 a3 bd 49 41 1c bd 88 b8 e9 3c ca 2d 4e 3d
       -0.07983771 -0.0381482 0.028530374 0.050336637
000100 38 a1 9b 3d 3e e7 13 bd 79 20 05 be bd f2 81 3d
       0.075991094 -0.0361092 -0.13000669 0.06345127
000110 e5 10 48 3d 0e 57 ef 3c 1f ac a1 3c 79 b9 81 bd
       0.048844237 0.029216316 0.019735394 -0.06334204
000120 eb cb b7 bd 30 db 7a bd 0f a2 38 bd 93 55 81 3c
       -0.08974441 -0.06124419 -0.045076426 0.015787875
000130 2e b2 c0 3d e1 ae 18 3d 5f 64 c7 bc c0 48 7e bd
       0.09408985 0.037276153 -0.024339853 -0.0620811
000140 cd a8 f1 3d 98 61 db 3d ee 3e 4b 3d 1b 23 80 3d
       0.11799774 0.10711974 0.04962056 0.06256696
000150 49 87 e3 bd 77 39 26 3d 1d ba e6 3d 1c 09 6b 3d
       -0.11109788 0.040582146 0.11265967 0.057381734
000160 e0 f1 55 3b c3 1a 76 3c f0 6d 0b 3e be 15 e4 3d
       0.003264539 0.015021029 0.13616157 0.111369595
000170 b2 83 41 3d 5a 32 94 3d 9e e2 27 3c cb e6 bf 3d
       0.047244735 0.07236166 0.010246901 0.09370192
000180 7f 52 db 3d d2 24 23 3d 6f ca d3 3d 68 8c a6 39
       0.10709094 0.039830036 0.103413455 0.00031766598
000190 2f 5c 00 bc 9f 50 9c bd a0 5a 50 3b 81 b1 76 bb
       -0.007834478 -0.07632565 0.0031792298 -0.0037642422
0001a0 51 c6 a4 bd 8a 2c 8c bc 7a 6d 16 3d 71 63 ff 3b
       -0.08045638 -0.017111082 0.0367255 0.0077938368
0001b0 76 45 6a bc 77 bf 99 bd 0e 7c b4 bc dc 13 41 bd
       -0.014298787 -0.07507222 -0.02203181 -0.04713808
0001c0 5c ed 88 bd 53 ac 22 3d 81 ac d7 bd 67 43 b9 bd
       -0.06685898 0.039715122 -0.105309494 -0.09046059
0001d0 54 58 40 bd 2e bb 0b bd 2f fd ad bd e7 86 b4 bd
       -0.046959236 -0.034114055 -0.084955566 -0.08814793
0001e0 94 f3 7d bc aa fd 6e 3c 81 fe 73 bd 60 06 89 bd
       -0.015499968 0.014586845 -0.059568886 -0.06690669
0001f0 0d 83 89 bd cb b4 e9 bb ee 89 70 3c fd 6d 05 3d
       -0.06714449 -0.007132148 0.0146813225 0.032575596
000200 c2 b7 c5 3d bb 32 48 3d 29 71 7a bd b1 d9 f9 3c
       0.0965419 0.048876505 -0.061143074 0.030499311
000210 8b a5 27 3d 53 12 0f 3d 92 bb cc bb a0 26 13 bd
       0.04092936 0.034929585 -0.006247946 -0.035925508
000220 56 18 d5 ba 8f 59 6e bb af 0b 3e 3c ac e1 ba 3c
       -0.0016257863 -0.00363693 0.011599465 0.022812687
000230 13 93 d5 bd 13 36 02 bd 13 12 fb bd 0a 43 30 bb
       -0.10428443 -0.03178985 -0.12259307 -0.0026895427
000240 f6 d1 5e 3d 17 a6 eb bd 11 3a 84 bd fb d2 ac bd
       0.054399453 -0.115062885 -0.06456388 -0.08438679
000250 41 61 4c bd 34 ee 6a 3c ca 8a 6f 3d de d7 b9 3d
       -0.049897436 0.014339019 0.05848197 0.090743765
000260 cc f0 51 3d fc 85 51 3d 46 2c d7 3c ff f6 9f 3d
       0.051255032 0.051153168 0.026266228 0.07810783
000270 ba e5 9b bd 3e 6d 08 bd 3e a0 1d 3d b2 2f 8e 3d
       -0.07612176 -0.033307306 0.038482897 0.06942691
000280 86 e3 85 bd 69 0b 30 bd 54 ed 32 bb 60 f3 95 bd
       -0.06537537 -0.04297963 -0.0027302103 -0.07321811
000290 df 3e c7 3d ea d2 d0 3c 2b 50 73 bd 0c a1 80 bd
       0.097287886 0.025491197 -0.059402626 -0.06280717
0002a0 8f ed 61 3d c9 6b 2c bd 7c ae b6 bc ee e3 73 bd
       0.055158194 -0.04209498 -0.022299998 -0.059543543
0002b0 79 f4 c3 bb e1 af 60 3d 47 ca 91 3c 9a 77 b4 3d
       -0.005980071 0.05485523 0.017796649 0.08811875
0002c0 0e 5d b5 3d cf 0b a1 3d 32 97 b2 3c 5d 0a 52 3d
       0.088556394 0.078635804 0.021800611 0.051279414
0002d0 d9 a7 73 3d cc 22 c7 3d 76 da e1 3d e4 96 84 bc
       0.059486244 0.09723434 0.11027996 -0.016185232
0002e0 0d 4a 4f bd 58 80 90 bc 9a 92 8d bd 9d c2 49 3c
       -0.05060773 -0.017639324 -0.06912728 0.012314466
0002f0 94 40 45 bd a8 e0 c1 bc 39 df ef bc 9a db 81 bd
       -0.04815729 -0.023666695 -0.029281246 -0.06340714
000300 2a 8a f4 3a 1f 97 e5 3c 98 8d 72 3d b5 48 d7 3c
       0.0018656899 0.028026162 0.059217066 0.026279787
000310 14 60 0c be a6 c7 c6 bd f6 98 bf bd b5 da 96 bd
       -0.13708526 -0.09706049 -0.09355347 -0.07365934
000320 f8 a3 a1 bd ab b6 b1 bd 70 93 5e bd 1b d4 b5 3c
       -0.07892603 -0.08677419 -0.054339826 0.022195866
000330 4c df bc 3c 46 f2 24 bd c8 8d d4 bc 79 5d 02 bc
       0.023055695 -0.040270112 -0.025946513 -0.007956856
000340 66 eb b2 3d de 05 ca 3d ce 95 c3 bd af 9d 50 bd
       0.08736305 0.098644 -0.09550057 -0.05093163
000350 e5 e0 18 3a cd a1 96 3d e3 47 af bc 7b 33 83 bd
       0.0005831852 0.0735508 -0.021396583 -0.064063035
000360 cf 32 31 3d 88 15 60 3d 9d 8f 8a 3d 08 1c 75 3d
       0.043261345 0.054708034 0.06765673 0.059841186
000370 a6 9e 77 bd 75 83 17 3d ac 69 ec 3d ca 06 11 3d
       -0.060454033 0.0369906 0.11543593 0.035406865
000380 ef 5b 9b 3c 4f ac 2a bd 35 67 83 bc 72 f4 7d 3c
       0.018964736 -0.041668233 -0.016040424 0.015500175
000390 c8 71 7c bd 3d 8d 4e bd d0 e1 fa ba 26 15 1d be
       -0.061631948 -0.050427664 -0.0019140784 -0.15340099
0003a0 e7 6a 25 bd 2b 77 81 3d 80 03 5e 3c fa a9 2f bd
       -0.040385153 0.063215576 0.013550639 -0.04288671
0003b0 1f 8e 5d bd 62 8b ff bc 72 5a cf bc 72 4e 10 bd
       -0.054090615 -0.031194393 -0.025311682 -0.03523106
0003c0 98 7d e0 bc 2d 53 c0 bd a5 e7 b1 3d 57 53 40 3d
       -0.027403638 -0.093908645 0.08686761 0.04695448
0003d0 d6 9e d8 bc 5a 5e 25 bd 14 42 41 3d 37 e7 fc 3d
       -0.026442926 -0.040373184 0.047182158 0.12348788
0003e0 fe 02 13 bd 5b ff 77 3d 52 e6 b4 3c 28 a9 be 3d
       -0.035891525 0.06054626 0.022082482 0.09309608
0003f0 40 47 dd 3c 5a 90 c0 3b 97 ab 9f bd c5 c4 9c 3c
       0.027011514 0.005876583 -0.077964 0.019136796

bias f4 [120]
000000 2d 5b a3 bd b5 14 6d 3c b5 6e 2a 3c 9e a7 ca bc
       -0.07976375 0.014470269 0.010402371 -0.02473813
000010 c2 2d 52 bc fc c1 3c bd f8 42 47 bd c0 fb d0 bd
       -0.012828292 -0.046083435 -0.04864785 -0.102042675
000020 ad 39 96 bd f6 e0 b0 3d 32 38 76 bd 2e d0 17 ba
       -0.073352195 0.08636658 -0.060112186 -0.0005791214
000030 f6 37 02 3d f4 ec ba 3c 4e 7b 13 bc e6 73 9b 3c
       0.03179165 0.022818066 -0.009001566 0.018976163
000040 4e 60 82 bd 87 c2 3f bc 2d 76 ef bc 70 fb 83 bd
       -0.06366025 -0.011704094 -0.029231155 -0.06444442
000050 e2 55 8c bd a2 5b 1d bb bf 69 dc bc 5e 67 de 3c
       -0.06852318 -0.0024010916 -0.026905892 0.027148899
000060 a1 a9 92 bc fa 0c 9d 3b 76 fd 8d 3d 6c ca 4f bc
       -0.017903151 0.0047928067 0.069331095 -0.0126825385
000070 ab 4a de bd 91 0a 52 bd cd 8e cb bd e4 f5 7b 3d
       -0.108540855 -0.05127961 -0.099393465 0.061513796
000080 06 0b 6c 3c a4 f6 36 3c 68 29 36 3d f9 23 d9 bc
       0.014406925 0.011167202 0.04447308 -0.02650641
000090 38 45 ec bc 4d be 69 bd 7e a9 6b bd d4 e3 2b 3d
       -0.0288416 -0.05706625 -0.057534687 0.04196532
0000a0 24 22 85 bd 7b 21 4d bd 18 ca f2 3c fd d0 1e 3c
       -0.065006524 -0.050080758 0.029637381 0.009693381
0000b0 ed f6 13 bb d4 95 01 3d 55 a0 4c bd d6 4c 7a bd
       -0.00225776 0.031637028 -0.049957592 -0.061108433
0000c0 23 3c 12 be f0 fa 87 bc 4c 21 80 3d c4 f8 e0 bc
       -0.14280753 -0.016599149 0.06256351 -0.02746237
0000d0 48 d6 80 3d c5 21 0d bd 9e 45 12 bc 51 ae c3 bd
       0.06290871 -0.034456033 -0.008927731 -0.095547326
0000e0 2f d8 e3 3c 3f 17 a1 bd ed 51 9e 3a 2a ca 51 3d
       0.027813045 -0.07865762 0.0012078859 0.05121819
0000f0 5a bd f6 bd 30 c8 16 bc 00 2b 4d bb 8d 33 74 bd
       -0.12047835 -0.009203002 -0.0031306148 -0.059619475
000100 50 52 50 bd 74 9e 28 bc af 30 66 bc 7d bb 9c bc
       -0.05085975 -0.010291684 -0.014049693 -0.01913237
000110 58 fe d0 3c 52 27 3b bd 44 ec f6 3d 22 fa ab 3b
       0.025511906 -0.045691796 0.12056783 0.005248324
000120 a8 98 8c bd b0 60 37 bc d7 01 02 bd 0c 0a 5a bd
       -0.06865054 -0.011192486 -0.031740036 -0.053232238
000130 32 80 a1 3c 44 ef 64 bd e1 0e af bc 87 53 97 bd
       0.019714449 -0.055892244 -0.0213694 -0.073889785
000140 a7 19 9e bd de 71 cf ba fe d0 43 bd 82 58 5a 3c
       -0.077197365 -0.0015826782 -0.047806732 0.013326766
000150 e6 76 0d be 84 d0 8e 3c 57 0e 73 bd 46 93 49 bd
       -0.13814887 0.017433412 -0.059339847 -0.049212717
000160 2a 05 50 bd 81 96 d9 bb a4 dd 59 bd 4a e6 16 bd
       -0.050786175 -0.006640256 -0.05318989 -0.036840715
000170 e2 15 30 3d 12 d1 f0 3c 86 22 82 bd 52 65 41 3d
       0.04298962 0.029396567 -0.06354241 0.047215767
000180 27 ae 20 bd 23 62 77 bd 07 36 14 bd e7 26 c6 3c
       -0.039228585 -0.060396325 -0.036184337 0.024188472
000190 41 ac da bc 7e f4 4c 3c 9b f8 5b bd 52 d2 b1 bd
       -0.026693465 0.012509463 -0.053703886 -0.086826935
0001a0 ac d6 de 3c 7b e9 b2 bc 25 3a 82 bd 96 0b cf bb
       0.027201973 -0.021839848 -0.063587464 -0.00631852
0001b0 38 10 cf 3b 64 72 15 bd f5 7b ad 3b 58 c7 4c 3c
       0.006319072 -0.036486045 0.005294318 0.012498699
0001c0 11 e8 9c 3c 08 e4 2d bd f3 e2 0e 3d 41 6f cd 3c
       0.019153627 -0.042453796 0.034884404 0.025077464
0001d0 a8 a0 83 3c 54 e8 7a 3c 92 38 f4 bb 72 13 d5 bb
       0.016067818 0.01531418 -0.007453033 -0.006502562

weight f4 [84, 120]
000000 39 15 f2 3c 5a b7 21 bc 4a 5b 9b bd 57 8c 66 3d
       0.029551135 -0.009870375 -0.075857714 0.056286182
000010 ff af 75 3d c7 af cc 3c e8 63 69 be 9f 89 ac bd
       0.059982296 0.02498616 -0.22792017 -0.08424687
000020 b9 7b 56 bd a6 9b 0c 3d 36 d7 e5 3d b8 4d 61 bb
       -0.052364085 0.034328125 0.11222689 -0.00343786
000030 84 37 9f bd 3c 09 55 be cb ee f7 bd ae d6 5c bd
       -0.07774261 -0.20804304 -0.12106093 -0.053915672
000040 43 17 5b bc fe 2d 44 bd 11 21 b3 3b 29 94 2d bd
       -0.013372245 -0.047895424 0.0054665883 -0.042377625
000050 5f 37 d9 bd 44 cd a0 bc bc 1e ce 3d ce b7 3a 3c
       -0.10606264 -0.019629128 0.10064456 0.0113963615
000060 f7 f3 b5 3d f0 3a 32 3d 83 58 c9 3d 69 7f de 3c
       0.08884423 0.04351324 0.098313354 0.027160363
000070 d9 29 c7 bd 72 94 b9 bd 0f 76 34 be e5 67 43 bd
       -0.09724779 -0.09061517 -0.17623161 -0.047706503
000080 8a c0 58 3d b5 c3 e5 bd e1 d3 db bb cc 70 9c 3d
       0.052917995 -0.11218969 -0.0067086075 0.07638702
000090 c2 b3 eb bb 24 2e 68 3c 1a 47 58 be 1b c3 bb bd
       -0.0071930597 0.014171157 -0.21120873 -0.09168073
0000a0 3c 81 6b bd 8a fc 13 3e 8c 85 3c bd 7c 07 05 3d
       -0.057496294 0.14451805 -0.046025798 0.03247784
0000b0 c9 58 38 3d 29 7a 40 3d 87 9d 63 be bd 1b 99 bc
       0.045006547 0.0469915 -0.2222806 -0.018689984
0000c0 1e d7 bf bd fd 77 78 3d 78 06 03 3d d9 26 73 bd
       -0.09367202 0.060661305 0.03198859 -0.05936322
0000d0 a1 7b d9 3c fa 32 3b bc 22 23 48 bb c2 a0 50 3d
       0.026548209 -0.011425728 -0.003053852 0.05093456
0000e0 c3 47 e1 3d 5e a3 8e bd 5b 85 14 be 3e 64 aa 3d
       0.110000156 -0.069647536 -0.14503996 0.08319901
0000f0 2a 5c d7 bd 18 55 a3 3d a6 8e fe 3c e5 83 17 be
       -0.10515626 0.07975215 0.03107388 -0.14796408
000100 0e 31 d9 bc e7 e2 af bd a6 95 c4 bd 14 42 c3 bd
       -0.026512649 -0.085882 -0.09598856 -0.09534088
000110 76 59 01 3e 54 5a 0e 3e 12 2f c2 3c 43 82 36 3d
       0.12631783 0.13901645 0.023704085 0.04455782
000120 f8 62 ae 3d 02 13 43 bd f8 8e db bd 87 eb 1d bd
       0.085149705 -0.04762555 -0.107206285 -0.038554695
000130 67 70 91 be dc d3 a1 bd 5f ee 59 bd 4c 9a e0 3c
       -0.2840607 -0.07901737 -0.053205844 0.027417324
000140 ea e9 cb bb 42 b7 ca 3d 2d d4 a6 bc 2a f0 90 bd
       -0.006222953 0.09898235 -0.020364845 -0.07077058
000150 72 a9 02 bd 00 b5 a2 3d 44 7f 75 3d b9 a2 ea bc
       -0.031899877 0.07944679 0.059935823 -0.028642045
000160 f3 ed 35 bd 6e 9c e6 3d b9 e2 83 3d ac a0 0d 3b
       -0.04441638 0.11260305 0.06439728 0.002161066
000170 0b 05 60 bd 24 a7 18 bd b7 35 a0 3c de fd b1 3d
       -0.05469231 -0.037268773 0.019556863 0.086909994
000180 6a 10 e2 bd 06 30 59 be c3 ce 26 be f1 2f d7 3d
       -0.11038287 -0.21209726 -0.16289811 0.10507191
000190 ab cc 6a 3d e1 5c 8d bd cb c1 02 3d f3 52 d7 bd
       0.057324093 -0.06902481 0.031923097 -0.10513868
0001a0 84 f9 c2 3c 6c 48 0b 3e ba ca c9 3b de 4d 03 be
       0.023800619 0.13601846 0.0061582 -0.12822673
0001b0 8e 67 33 3d 82 5b d5 bd a4 aa 23 3c 3b 35 66 bd
       0.04379993 -0.10417844 0.009989414 -0.05620311
0001c0 dc d9 ac 3d e6 32 5c 3c 3b 6f 97 3c 85 f3 ba 3c
       0.08439991 0.0134398695 0.018485656 0.022821197
0001d0 04 b6 d1 3d 7d cc 0b 3e fe 73 58 3d b9 3b db bd
       0.10239795 0.13652225 0.052844994 -0.107047506
0001e0 06 b9 8c bd 63 bd d1 3d b9 45 00 3d 55 25 2f bd
       -0.06871228 0.10241201 0.031316493 -0.042760212
0001f0 a3 5d 06 3e 8a 2a c7 b8 8e cc 94 be da 56 0c 3d
       0.13121657 -9.496983e-05 -0.29062313 0.034262516
000200 b8 f1 8b bd e0 4f 1b 3d a5 fd 53 3d 96 90 2e 3d
       -0.068332136 0.03791797 0.051755566 0.042618357
000210 c3 e1 33 bd 54 b8 0d 3d 28 81 60 bc 7d a8 da 3d
       -0.043916475 0.034599617 -0.013702668 0.10676668
000220 fb de 0d 3d 06 5a 95 3d 57 b0 b0 3d 5f 22 da 3d
       0.03463648 0.07292561 0.08627384 0.10651087
000230 11 e6 05 be 37 c9 0d bd b7 50 4c 3d 27 23 f7 3c
       -0.13076045 -0.03461572 0.049881663 0.03016813
000240 49 ea 92 3d ab b2 31 3d 76 24 8e bd 8f 68 0b 3d
       0.071735926 0.04338328 -0.06940548 0.03403526
000250 b9 e6 87 bd d5 67 42 bd 17 87 a4 bc 80 ee ec bd
       -0.06635804 -0.047462303 -0.020083947 -0.11568928
000260 f8 c5 4b bc 62 14 78 3e ba 0d 98 bd 44 be 15 3c
       -0.012437336 0.24226525 -0.07424493 0.009139601
000270 d7 36 99 3d 02 ad d9 bd e8 59 a1 3d 9d 7d 87 3c
       0.07481163 -0.10628702 0.078784764 0.01653939
000280 9f df fb 3d b9 1b 4d 3d d7 16 e0 3d b6 fd 31 3d
       0.12298512 0.050075267 0.10941856 0.04345485
000290 77 30 b5 3d a9 34 7d bd 8e e9 9c 3d f2 a4 24 3e
       0.088471346 -0.0618178 0.076617345 0.16078547
0002a0 b9 19 4a 3e af e0 a4 bd 6d 7a 34 bd b9 64 0f be
       0.19736375 -0.080506675 -0.044062067 -0.14003266
0002b0 02 22 d1 bd 12 04 ed 3d 44 39 c3 bc 2a 21 c5 bd
       -0.102115646 0.11573042 -0.023831017 -0.09625466
0002c0 37 a5 36 bd 1b 77 17 be 94 36 c4 3d 1e 3f b8 bd
       -0.044591155 -0.14791529 0.095807225 -0.08996414
0002d0 e4 7a 3e 3c 07 57 dc bd 31 46 77 bd 74 2e 58 3c
       0.011625979 -0.10758787 -0.060369674 0.013194669
0002e0 0f 29 e8 bc e1 c5 f7 3b b5 5c 98 bd ad 08 1a 3e
       -0.02833989 0.007561431 -0.074395575 0.15042372
0002f0 be 99 8d bc 44 75 1c be 4e 01 9a bd 40 55 87 3d
       -0.017285224 -0.15279108 -0.0751978 0.06608057
000300 6c 6b 5b be ef bf 91 bc 07 d2 2f bd f4 f3 23 bd
       -0.21427697 -0.017791716 -0.042924907 -0.040027574
000310 a8 91 68 3c f7 c9 f1 ba 3e 5a c3 bc ce 09 1d 3e
       0.014194883 -0.0018447031 -0.023846742 0.15335771
000320 dd fd 93 3d 00 39 9c bd 4d e0 ce bd f4 68 33 3d
       0.07226155 -0.076280594 -0.10101376 0.043801263
000330 0e a6 a1 3d 30 a7 c9 bc ae f7 83 bd 76 16 0e 3e
       0.078930005 -0.024615854 -0.064437255 0.13875756
000340 35 52 00 bd ef 93 05 3e ec 1e ac 3c 14 aa d5 3d
       -0.0313284 0.13044713 0.021010838 0.104328305
000350 55 28 52 bd 81 10 a3 bd f1 e8 05 be 74 23 4d 3d
       -0.051307995 -0.07962132 -0.13077141 0.05008264
000360 39 a0 30 3e 87 e3 18 bd e3 df b3 3d e0 f9 94 bc
       0.1724862 -0.037326362 0.087829374 -0.018185556
000370 66 ad 94 3d b1 05 4d bd 2c b0 bd bd 08 8e b1 bd
       0.072596356 -0.050054256 -0.09262118 -0.086696684
000380 37 29 15 bd 3a 9a c7 bd 95 64 ca bd b3 89 a5 3b
       -0.03641626 -0.09746213 -0.09882466 0.0050518154
000390 56 d1 e8 bd 17 b1 b9 3c 9f f9 b9 bd 8c 3c 2e bc
       -0.11368053 0.02266745 -0.090808146 -0.010634553
0003a0 8f b0 86 bd e1 8a a2 3d 78 bd 0e 3c 94 23 5d 3d
       -0.06576645 0.07936645 0.008712165 0.053989008
0003b0 b5 47 a4 3d 3d ee ab bd df db 60 bb 95 8c 8c bc
       0.080214895 -0.0839505 -0.003431074 -0.017156878
0003c0 2a bc f5 3d 5e 1a 0d be fe e0 4f bd 46 04 93 3d
       0.1199878 -0.1377959 -0.05075168 0.071785495
0003d0 e2 0a 26 3d a5 a9 f0 bb 73 b1 14 3e 31 db f1 39
       0.040537722 -0.007344442 0.14520817 0.00046130412
0003e0 ea 14 ee bd 1c 6f 9b bd 64 d1 15 3e 24 09 ec 3d
       -0.11625083 -0.07589552 0.14630657 0.11525181
0003f0 4d a0 7a be 66 f9 d1 3d 8d 23 fc 3c 5b 9c 5d 3d
       -0.24475212 0.10252647 0.03077867 0.05410419

bias f4 [84]
000000 00 f0 e3 3d ef bf 1a bd dd 35 b3 3c 56 69 ee bb
       0.11129761 -0.0377807 0.02187627 -0.0072757406
000010 b8 a5 f5 3d 75 10 46 3c 38 82 bd 3c a9 75 af bd
       0.11994499 0.012088885 0.023133382 -0.08567364
000020 1f 45 54 3d 21 5c f0 bd bf 97 e1 bc fd 3d 2c bd
       0.05182373 -0.11736322 -0.027538178 -0.042051304
000030 f7 d2 dd 3c 53 c1 94 3d bf ea 4d bd 99 a4 df bc
       0.027078135 0.07263436 -0.0502727 -0.027300166
000040 ab 23 2d 3d d9 cf 09 3d ac b6 9f bc b6 4a 65 bd
       0.042270344 0.033645485 -0.019496284 -0.055979453
000050 7b 48 32 3d f2 08 e9 3d cd 79 09 3d aa 1e e9 3d
       0.043526154 0.11378659 0.033563424 0.11382802
000060 14 ec 7f bc 08 88 66 bc ac 82 fe 3b 04 19 bf 3d
       -0.01562025 -0.014070518 0.007767042 0.09330943
000070 1a be 19 bb 57 19 7b bd c5 2d 3b 3d aa c8 3f bb
       -0.0023459257 -0.061303463 0.045697946 -0.0029263892
000080 56 ec f7 bb 93 b9 e8 bd c3 be 43 3d a4 f6 ec bc
       -0.0075660152 -0.113635205 0.047789346 -0.028926201
000090 19 e5 33 bd 8a ef 12 3e f1 4b 0e 3e 2d 5a 86 bd
       -0.043919656 0.1434919 0.13896157 -0.065601684
0000a0 2e 2f 8f bd 06 2f 81 3c 61 9b e1 bd 2c da f9 3d
       -0.06991421 0.015769493 -0.11015964 0.12199816
0000b0 8e ae 8b bd 0d f6 d9 3d ba 0e 31 3d 50 5a f8 3d
       -0.06820403 0.106426336 0.043226935 0.12126601
0000c0 60 08 68 bd 22 fd 01 bd 50 fb ed 3d 8c d7 b2 3d
       -0.056648612 -0.031735547 0.116202 0.087325186
0000d0 5d 12 08 bd 08 4e dc bc 57 5f c5 3d 34 58 f8 bc
       -0.033220638 -0.026892677 0.09637325 -0.030315496
0000e0 51 43 40 bd 8d 2e f0 3d e6 7e f8 3b ac be ad 3d
       -0.046939198 0.11727629 0.007583487 0.084836334
0000f0 f4 13 0a bd 93 9d ac 3a 81 cb 9e bc 6f b4 17 3d
       -0.033710435 0.0013169519 -0.019384148 0.03703731
000100 62 cf 0c bd 82 e5 12 bc 83 36 14 be 98 bb 7d 3b
       -0.034377463 -0.008965852 -0.1447392 0.003871655
000110 1c 49 8e 3d 11 50 00 be 78 92 81 3d d9 41 30 3d
       0.06947538 -0.12530543 0.06326765 0.043031547
000120 8b f9 48 3c 9f 31 85 bd 23 d2 09 3d 43 cd 9a bd
       0.012266527 -0.06503605 0.033647668 -0.07558682
000130 a2 3a f1 3d ae fa 06 3e 4e 4e 9e 3d 1e a7 b3 bc
       0.117787614 0.13181564 0.07729779 -0.021930274
000140 33 56 9a 3d 06 ed ba 3c 2e 2e 82 3c 10 3b 2e bd
       0.075359724 0.0228181 0.01589116 -0.042536795

weight f4 [10, 84]
000000 6e f7 a9 3c 1f 06 d3 3d 16 dc f6 bd 3d bc e5 bd
       0.020747866 0.10303902 -0.12053697 -0.11217544
000010 41 44 37 be ee d0 47 be c1 11 8e bd d6 5a 7c 3d
       -0.1789713 -0.19513294 -0.0693698 0.061610065
000020 de aa f0 3d 25 bd ad bd 89 68 81 3d e8 07 95 3d
       0.1175134 -0.08483342 0.063187666 0.072768986
000030 b7 ec e0 bd b9 f1 b2 bd 4f d0 be 3d 72 ba df 3d
       -0.1098265 -0.08737511 0.093170755 0.109242335
000040 24 68 ff 3b a4 13 c9 bc 17 49 e8 3d 29 39 8c bd
       0.007794397 -0.024545498 0.11342066 -0.0684684
000050 68 68 5e bd 07 fe 56 bd c1 ce 9e bd 03 ee 28 be
       -0.05429879 -0.052488353 -0.07754279 -0.16497044
000060 ba 21 dc 3d a0 98 21 be 0e 04 4f be c0 3f 92 bc
       0.1074862 -0.15780878 -0.2021639 -0.017852664
000070 54 7e 01 3e 35 1b 8a bd c9 af 1d be 41 f1 cb 3d
       0.12645847 -0.067434706 -0.15399088 0.09958125
000080 cc 42 66 3c 83 e8 e7 bd b8 48 2e 3e e3 0a 1c be
       0.014054012 -0.11323645 0.17019928 -0.15238528
000090 f3 69 e7 bd 2e 3e 89 3d 33 95 b1 3c 49 cb f3 bc
       -0.11299505 0.06701313 0.021677589 -0.02976002
0000a0 3f 2e 27 bd 8f 25 03 be 72 92 35 be c5 0d f7 3d
       -0.040815588 -0.12807296 -0.17731646 0.12063173
0000b0 ca 19 13 3d fb cc 08 3e 83 6e f1 3d 4f 2c 71 3c
       0.035913266 0.13359444 0.117886566 0.014720037
0000c0 e0 b2 01 be 9c 52 54 bc 6b ff 85 be f4 09 24 be
       -0.12665892 -0.012959149 -0.2617143 -0.16019422
0000d0 d7 27 9a bd 08 d6 7e 3d 4c db 89 3d 7d 13 40 be
       -0.0752713 0.062215835 0.06731281 -0.18757434
0000e0 4b 6a 00 be d6 62 95 3c b2 3e 85 bc 9f ff 05 be
       -0.12540548 0.018235605 -0.016265247 -0.13085793
0000f0 9c ee 92 3d 49 10 9e bd aa f2 81 3c 14 21 05 bd
       0.071744174 -0.0771795 0.015862782 -0.03250225
000100 b5 93 02 3e aa 16 9d 3d e4 f7 a5 3d f0 f4 fc bd
       0.12751658 0.076703385 0.08103922 -0.123514056
000110 92 dc 25 3e 8c 7a 29 be 5e 54 91 be 2d 10 87 3b
       0.16197422 -0.16550654 -0.2838468 0.0041218014
000120 af ee bf 3d 39 2c b8 bc 1e 0b b9 3d 51 17 30 3d
       0.09371697 -0.022482025 0.090353236 0.042990986
000130 15 18 81 bd 03 87 8f 3d 8f e1 69 bd d2 90 17 3d
       -0.063034214 0.07008173 -0.057099875 0.037003346
000140 ea dc 2b 3d 5e 58 e2 3c c8 6e 1b 3e 1a 39 64 3d
       0.041958727 0.027630027 0.15178978 0.05571852
000150 b2 2f 37 bd 7e 33 51 be f4 9d d8 bd 2b 17 13 be
       -0.04472322 -0.20429799 -0.10577002 -0.14364307
000160 c2 01 df 3d 21 4f 62 3d 9a 28 db bd 40 02 7c bc
       0.10889007 0.055251244 -0.107011035 -0.015381396
000170 63 0a 06 be 87 d2 e8 bc 8a 33 be bd fa 2d d2 3d
       -0.130899 -0.0284207 -0.09287174 0.102626756
000180 3f f8 09 3e a6 ec 09 be 5a f4 9d 3d 84 89 ce 3d
       0.13473605 -0.1346918 0.07712622 0.10084823
000190 28 a5 22 3e d0 96 2d 3d 4c 57 d8 bd 3f d1 13 be
       0.15883315 0.042380154 -0.105635256 -0.1443529
0001a0 6c 16 f0 bc fe e9 ea 3b d9 ea f7 bc 9c ad ca 3b
       -0.029307567 0.0071690073 -0.030263351 0.0061852466
0001b0 b0 45 4b bd a3 67 09 bd 14 3a 22 bc fb 1c 4b 3d
       -0.049627006 -0.0335461 -0.009901542 0.049588185
0001c0 e3 b7 bb bd 36 e2 97 3b 93 8c 11 bd f3 8c 4e be
       -0.09165933 0.0046351207 -0.035534453 -0.20170955
0001d0 0c 38 5c be e0 4b 02 3e 78 46 9f bd 04 c7 9c be
       -0.21505755 0.12724257 -0.07777113 -0.30620587
0001e0 ac 3d a1 3d 8f 1c 4a bd 4e 2e f8 3d 58 43 03 3e
       0.07873091 -0.04934364 0.12118207 0.12818658
0001f0 62 f4 24 3e 89 08 41 3d fa 24 ba be aa 3b 5a 3d
       0.1610885 0.04712728 -0.36356336 0.053279556
000200 8f 7f 08 be fe 13 5c 3b 49 33 84 be ca 08 14 3e
       -0.1332991 0.0033581252 -0.25820377 0.14456478
000210 95 72 1c bd ca e0 7e 3c b2 ec 36 be 85 c1 6a be
       -0.03819521 0.015556524 -0.1786373 -0.22925384
000220 ba 87 f2 bc c6 49 d8 bd 6a 07 f0 3c 8c 18 65 39
       -0.029605735 -0.10560946 0.02930041 0.00021848286
000230 b4 7c c1 3d 85 c6 d7 3a 91 20 a4 3d 7c 02 5a be
       0.09447613 0.0016462362 0.08014024 -0.2129001
000240 d3 a4 17 be e7 82 2e 3c 26 3d 3d be 4d 8a 14 3e
       -0.14808969 0.010651327 -0.18480358 0.14505883
000250 24 90 a9 3c cc 86 b6 bd 30 b6 7d 3d 75 55 b2 3d
       0.020698614 -0.08912429 0.061941326 0.08707706
000260 05 09 77 bd ec 35 a1 3d 35 0c 10 be 80 3a 33 3e
       -0.060311336 0.07871613 -0.14067157 0.17502785
000270 03 b2 56 3b 17 3e bb 3d dc 62 6d be 00 ed f2 bc
       0.0032759912 0.09142702 -0.23182243 -0.029654026
000280 2c bb 96 bc 83 cb 95 bc 64 8e c3 bd 13 a4 d4 bc
       -0.018399797 -0.018285519 -0.09548643 -0.025957143
000290 d6 eb 37 3c 2d 41 3a be 4d f3 1e bb 52 b2 a3 bd
       0.011225661 -0.18188925 -0.0024253905 -0.07992996
0002a0 a6 99 31 be ed 1d d7 bb 3d 5a d9 3d 99 cc bb 3d
       -0.17343768 -0.0065648467 0.10612915 0.09169883
0002b0 9e 55 02 3d e5 53 58 3d c7 a6 b7 bd 9d 3d d2 bd
       0.031819932 0.052814383 -0.08967357 -0.10265658
0002c0 0d 0b 05 bd 4b de 1c bc 3f e9 b0 bc b7 fc 8c 3d
       -0.032481242 -0.009574483 -0.021595595 0.06884139
0002d0 01 36 15 be 8a 0c bc bd a2 89 1f 3e 0f 76 90 3c
       -0.14571382 -0.09182079 0.15579847 0.01763442
0002e0 83 9b 0b 3e b5 de 34 3d ca 1a 25 bc 0e bb 8b 3d
       0.13633542 0.044157702 -0.010077188 0.06822787
0002f0 0e c2 48 3e 51 6a ff 3c 4b d3 d1 3b 81 ea 1d be
       0.19605276 0.031178625 0.006403362 -0.15421487
000300 f6 96 91 3d 92 c3 79 bd 6f 60 9b 3d fa ee 83 3d
       0.07108872 -0.060977526 0.075867526 0.064420655
000310 2a 45 b4 bd 2d c7 36 3d 38 24 90 3d bd 38 0b 3d
       -0.088022545 0.044623543 0.07038158 0.033989657
000320 43 a2 62 3d ae fb a0 3d 30 86 7d 3d eb 9c 15 be
       0.055330526 0.07860504 0.06189555 -0.1461064
000330 90 6a f4 3d 7f 09 c6 3c f7 7a c6 3c f5 1b 09 3e
       0.11934388 0.02417445 0.024228556 0.13389571
000340 b8 4a 47 3d 65 06 c8 3c 9e 8d 31 bd a6 ab 03 be
       0.04865524 0.024417112 -0.043347947 -0.12858447
000350 c6 78 c6 3b 98 4c 29 3d 6f a0 72 3c 6d 6d 25 bd
       0.006056878 0.04133281 0.014808758 -0.04038756
000360 00 bd 9a bc d0 51 1b be b3 51 9f 3d f2 fd 09 3d
       -0.01888895 -0.15167928 0.07779255 0.033689447
000370 87 d3 9c bd 1e 8b c7 bb c3 60 e2 bd 95 db ed bc
       -0.07657533 -0.006089582 -0.11053612 -0.029035369
000380 b9 19 67 3d f1 f8 25 be 2b 2a 8a 3d 9a 51 f7 3d
       0.056421015 -0.16208245 0.06746324 0.12076111
000390 3f c2 9b bb a8 9d 21 3e 21 5a 92 bd ed 77 89 bd
       -0.0047533805 0.15782797 -0.07146097 -0.06712327
0003a0 ab 56 6c be 56 aa f0 3c 81 f9 8f 3d 3f 22 f4 3c
       -0.23079936 0.029378098 0.07030011 0.029801486
0003b0 05 a6 62 3d 92 19 8c bd 4c 8a dd bd 06 f1 ad bd
       0.05533411 -0.06840815 -0.10817394 -0.08493237
0003c0 91 85 16 3c 06 ed fe 3d bb e0 03 bc e4 61 f1 bc
       0.009187118 0.124475524 -0.008049185 -0.029465623
0003d0 74 df 37 bd e0 9c 9b 3d 88 5d b4 3d 2f 03 6a bb
       -0.044890836 0.07598281 0.08806902 -0.0035707464
0003e0 1c a8 a4 bd b7 a7 6e 3d 1d ca b1 3d 46 86 b7 3d
       -0.08039877 0.058265414 0.08681128 0.089611575
0003f0 7e 9c df 3d 89 7d c5 bd bc 1a 0c bd 73 6f 53 be
       0.109185204 -0.096430846 -0.034205183 -0.20647983

bias f4 [10]
000000 2a b9 c9 bc e3 c4 0d 3b 8e 2d c4 bd 35 dd 83 3c
       -0.024624426 0.0021632246 -0.09579001 0.01609669
000010 1c ed 39 3d 1b 26 9b bd a7 eb 3e bb b9 59 e1 bd
       0.04539214 -0.075756274 -0.002913216 -0.11003441
000020 df c9 1a 3e 8d 65 d7 3d
       0.1511607 0.10517416
